Saved_Model/model.ckpt (torch, 457471 bytes, 202 tensors)

model.model.embedding_in.weight f4 [32, 37]
0	0xbc6f0302	-0.014588119
1	0x3d1d0cf0	0.038342416
2	0x3de0bdfb	0.10973736
3	0xbd09e8c8	-0.033669263
4	0xbdc32151	-0.09527839
5	0xbbe126ea	-0.006871094
6	0x3d9c9ef9	0.07647509
7	0x3d1dd15c	0.03852974
8	0xbdb6d894	-0.08928028
9	0x3e2d5511	0.16926982
10	0xbd8a16cd	-0.0674263
11	0x3bf8a5eb	0.0075881383
12	0xbd8c2829	-0.068435974
13	0x3d733b11	0.059382502
14	0xbe2b721d	-0.1674275
15	0xbc6e03f1	-0.014527307
16	0x3e228395	0.15870507
17	0xbde6ad25	-0.112634934
18	0x3c06e506	0.008233314
19	0x3d343fc7	0.044006135
20	0xbe564cfc	-0.20927805
21	0xbe502201	-0.20325471
22	0xbc29cb77	-0.010363451
23	0xbde4063b	-0.11134001
24	0xbdbd86e8	-0.09254247
25	0xbdb447e5	-0.08802775
26	0xbd0d1538	-0.034444064
27	0x3d89e1f5	0.06732551
28	0x3d92bc96	0.07164876
29	0x3dddb759	0.108259864
30	0x3dc25152	0.09488167
31	0x3e1265f7	0.14296709
32	0x3e8b4a68	0.27205205
33	0x3e1a9a2c	0.15097874
34	0xbe484493	-0.19557409
35	0x3e3220f3	0.17395382
36	0x3eb9ca2f	0.36287066
37	0xbdda184a	-0.10649164
38	0xbe26d8a3	-0.16293578
39	0x3df2c000	0.11853027
40	0x3e3159ef	0.17319463
41	0x3d12189d	0.035668004
42	0xbcaaa001	-0.020828249
43	0xbd302cde	-0.04301154
44	0x3cb6e985	0.022328148
45	0xbd8a8cf6	-0.067651674
46	0xbe0edfbb	-0.13952534
47	0x3c151b35	0.009100725
48	0x3cfe1557	0.031016035
49	0x3e5574fd	0.20845409
50	0xbe09b1d5	-0.13446744
51	0xbddaf50b	-0.106912695
52	0xbeb9228a	-0.36159164
53	0xbe932fee	-0.28747505
54	0xbda4ae45	-0.08041052
55	0xbe16ec07	-0.14738475
56	0x3e266e96	0.16253123
57	0x3e26a484	0.16273695
58	0xbdd5ada8	-0.10433513
59	0x3e123bef	0.14280675
60	0x3e1f5d1d	0.15562864
61	0x3e576f1d	0.2103848
62	0x3e46be32	0.19408491
63	0x3dd030d7	0.101655655
64	0x3e258228	0.16162932
65	0xbccc5e4a	-0.024947304
66	0xbd2450ed	-0.04011624
67	0x3d1e186c	0.03859751
68	0x3e090b88	0.13383305
69	0x3e0e4dbd	0.13896842
70	0xbe3fc5c6	-0.18727788
71	0xbe8ed372	-0.27895695
72	0x3d01ddbf	0.031705614
73	0x3e212c5f	0.15739582
74	0x3d039106	0.032120727
75	0xbd81b130	-0.06332624
76	0xbc0c0695	-0.008546491
77	0xbce090a3	-0.027412718
78	0xbca0e0e8	-0.019638494
79	0x3e2d7908	0.16940701
80	0x3defa59c	0.11701509
81	0x3c56552a	0.013081828
82	0x3df6afc4	0.120452434
83	0x3db87a0c	0.090076536
84	0xbe22173b	-0.15829174
85	0xbd207f0e	-0.03918367
86	0x3b854ad9	0.0040677604
87	0x3e2bb060	0.167665
88	0xbe173365	-0.14765699
89	0x3d1f3ec7	0.03887823
90	0x3e38023f	0.17969607
91	0xbcc0f70a	-0.023555297
92	0x3e35bc1c	0.1774754
93	0x3d56ad8b	0.052411597
94	0x3dfc61ca	0.12323339
95	0x3de44c4e	0.111473665
96	0xbe27ffb6	-0.1640614
97	0xbd83041b	-0.063972674
98	0xbc8da238	-0.017289266
99	0x3db8fcb9	0.09032578
100	0xbda8849b	-0.082284175
101	0xbda0c0eb	-0.07849296
102	0x3d9b5b95	0.07585827
103	0xbcafb7fb	-0.021450033
104	0xbe139367	-0.14411698
105	0xbcbcadf0	-0.023032159
106	0x3c924500	0.017855167
107	0x3e142449	0.14466967
108	0xbe893661	-0.267993
109	0x3ebbef70	0.36706114
110	0x3e0e97d9	0.13925113
111	0x3d4a2439	0.04935095
112	0x3d8ffb3d	0.07030342
113	0x3e0860ae	0.1331813
114	0xbd9a22d9	-0.07526178
115	0x3d18fff8	0.037353486
116	0xbdb45955	-0.08806101
117	0xbc8c165e	-0.01710051
118	0x3dc02ebf	0.09383916
119	0x3e25a6c2	0.16176894
120	0x3e1c20aa	0.15246835
121	0x3de59b26	0.11211233
122	0x3e1709b5	0.14749797
123	0x3e15c475	0.14625724
124	0x3ea6934e	0.3253426
125	0xbd136dd0	-0.035993397
126	0x3e6b6156	0.2298635
127	0x3e27086d	0.16311808
128	0xbd676968	-0.056497008
129	0xbd04fb4e	-0.032466225
130	0xbd589392	-0.05287511
131	0x3d68424d	0.056703854
132	0x3eb3552a	0.35025913
133	0xbd5da3e3	-0.054111373
134	0xbe91c05c	-0.2846707
135	0xbe1e9a1d	-0.15488477
136	0x3df7c92a	0.12098916
137	0x3d2954e0	0.04134071
138	0x3dfe1b62	0.124075666
139	0xbd71b250	-0.059007943
140	0xbdfdc4b3	-0.12391033
141	0xbe2fda3c	-0.17173094
142	0xbb9fd9d3	-0.0048782616
143	0xb91e912c	-0.00015122135
144	0x3c7bed6c	0.01537643
145	0x3e7b1c1a	0.24522439
146	0x3e4b265c	0.19838852
147	0xbc4f9cac	-0.012671631
148	0x3cb6ddb4	0.022322513
149	0xbd5529f0	-0.052041948
150	0xbdcea0de	-0.10089277
151	0xbe1b8c48	-0.15190232
152	0xbc916122	-0.017746512
153	0x3d7605d1	0.06006414
154	0x3d6c07dd	0.057624687
155	0xbb8ae1b6	-0.0042383326
156	0x3a72c24e	0.0009260521
157	0x3e1e0414	0.15431243
158	0xbe4e8fb4	-0.20172006
159	0x3d91f400	0.071266174
160	0xbcd82e51	-0.026389273
161	0x3e49d627	0.19710599
162	0x3e5759a7	0.21030293
163	0x3e727d8c	0.23680705
164	0x3e1fda1e	0.15610549
165	0xbdf1ca34	-0.11806145
166	0x3d12f13b	0.035874587
167	0xbdee659c	-0.11640474
168	0x3d966653	0.073437355
169	0x3e5ce27a	0.21570769
170	0xbd5a2fd5	-0.053268272
171	0x3ea1ef60	0.3162794
172	0x3e6d7926	0.23190746
173	0x3d587255	0.05284341
174	0xbdd73b6e	-0.10509382
175	0xbd3d6d7f	-0.046247
176	0xbdefebff	-0.117149346
177	0xbe15269a	-0.14565507
178	0x3d0d6304	0.034518257
179	0xbdb0537f	-0.086096756
180	0xbe430340	-0.19044209
181	0x3cbc693c	0.022999398
182	0x3ca7a5ec	0.02046486
183	0xbe67ead9	-0.22648181
184	0xbe45b4ed	-0.19307299
185	0x3e0eb3fb	0.13935845
186	0x3d183d89	0.03716806
187	0x3cde99f6	0.027173024
188	0xbdcf9ec8	-0.10137707
189	0xbd6047b8	-0.054755896
190	0xbd904a93	-0.07045474
191	0xbe014134	-0.1262253
192	0x397cfcbb	0.00024126742
193	0x3d303565	0.04301967
194	0x3eaf0d61	0.34189895
195	0xbc5788e2	-0.013155194
196	0xbe6c2e89	-0.23064627
197	0xbdfbfece	-0.123044595
198	0x3ec3ba56	0.382281
199	0x3cc60397	0.024171634
200	0x3e97432d	0.2954344
201	0x3e28ad58	0.16472375
202	0x3e249e07	0.16075908
203	0x3ccd14a7	0.025034262
204	0x3daa3bf4	0.083122164
205	0x3deb4f6b	0.11489757
206	0x3ebb8c9d	0.36630717
207	0xbe33845a	-0.17530957
208	0x3dc7a6fb	0.09748646
209	0x3d255daa	0.040372528
210	0xbe3278fe	-0.17428967
211	0xbce68aa0	-0.028142273
212	0xbc9cddb1	-0.01914868
213	0xbe2597a2	-0.16171125
214	0xbe0dc4ba	-0.13844576
215	0x3d7f2035	0.062286574
216	0x3e441858	0.19149911
217	0xbd9eb06a	-0.07748492
218	0x3dd111f0	0.102084994
219	0xbda9eb44	-0.082968265
220	0xbb14f847	-0.0022730993
221	0x3db98a5f	0.09059595
222	0x3e10ac8c	0.14128321
223	0x3e0af0d1	0.13568427
224	0x3e02d602	0.1277695
225	0xbdb1ef0d	-0.086881734
226	0xbd0281b9	-0.031861994
227	0x3da6c8b1	0.081437476
228	0x3d45ed16	0.048321806
229	0xbae5fbcd	-0.0017546356
230	0x3d76e43e	0.060276262
231	0x3db0525d	0.086094595
232	0x3c8e5075	0.01737235
233	0x3e31a9af	0.17349885
234	0x3e3c9a13	0.1841815
235	0xbb85712a	-0.004072328
236	0xbdcaaa15	-0.09895722
237	0x3e25b708	0.16183102
238	0x3cdc71a7	0.026909662
239	0xbc1517f2	-0.009099947
240	0xbe51b064	-0.20477444
241	0xbd5e31d9	-0.054246757
242	0xbdc352c1	-0.095372684
243	0x3e8993ec	0.26870668
244	0x3e2d0e3d	0.16899963
245	0xbec86eba	-0.39146978
246	0xbecb5cd4	-0.3971926
247	0x3d26d1e1	0.0407275
248	0xbe367724	-0.17818886
249	0xbde59b00	-0.112112045
250	0x3bd763fd	0.006573199
251	0xbc97edc1	-0.018545987
252	0xbe8857b4	-0.26629412
253	0xbd67914d	-0.056535054
254	0xbe3fd0b7	-0.18731962
255	0xbe3175a3	-0.17330031

model.model.embedding_in.bias f4 [32]
0	0x3de16147	0.11004882
1	0xbda11345	-0.078650035
2	0xbd3eefa1	-0.046615247
3	0x3d507437	0.05089208
4	0x3ddc5cc4	0.10759881
5	0x3c5d4cd7	0.01350709
6	0xbd4918a0	-0.04909575
7	0xbd1c4b7e	-0.038157932
8	0xbdc5313e	-0.09628533
9	0x3e0246cd	0.12722321
10	0xbd867005	-0.06564335
11	0x3dcd9f80	0.10040188
12	0xbdcb03c0	-0.09912825
13	0x3d3c8a4e	0.046030335
14	0xbccba1d0	-0.024857432
15	0x3e2b2b27	0.1671568
16	0xbd8f956e	-0.07010923
17	0xbd1be958	-0.03806433
18	0x3d76702e	0.060165577
19	0xbc1a6a95	-0.009424825
20	0x3d3a9612	0.045553274
21	0x3dd80f9d	0.10549853
22	0x3bae61c7	0.0053217146
23	0xbda015e3	-0.078166746
24	0xbd84a6e3	-0.064771436
25	0xbdaaf8d2	-0.0834824
26	0xbdaf69fb	-0.08565136
27	0xbd2d0da9	-0.042249355
28	0xbc3b18cf	-0.011419489
29	0x3c2bc98a	0.010485062
30	0xbd99bbeb	-0.07506546
31	0xbd55508f	-0.05207878

model.model.embedding_out.weight f4 [3, 32]
0	0x3d808d6d	0.06276975
1	0xbd170d0d	-0.03687768
2	0x3d9ad51a	0.07560177
3	0x3c81e488	0.015856043
4	0xbd312b34	-0.043254092
5	0xbbde27e1	-0.0067796563
6	0xbc4ad218	-0.012379192
7	0x3ac71a2c	0.0015190295
8	0xbc9e518b	-0.019325992
9	0xbd4e77d0	-0.05040723
10	0x3d525ead	0.05135982
11	0xbdd6766a	-0.104718044
12	0x3cb72700	0.022357464
13	0x3c89b1b2	0.016808365
14	0xbc925342	-0.017861966
15	0x3c17b2cd	0.009258938
16	0xbcb1a1dd	-0.021683628
17	0x3c1c9155	0.009556134
18	0x3d4ab75c	0.04949127
19	0x3daee62e	0.08539997
20	0x3c722dde	0.014781443
21	0x3c4be432	0.012444543
22	0x3c0f9fa2	0.008766087
23	0xbc2172c7	-0.009854025
24	0xbca0aa12	-0.019612346
25	0xbd1e1333	-0.03859253
26	0x3d699eb7	0.057036128
27	0xbd56dcc0	-0.052456617
28	0xbd289338	-0.041156024
29	0x3c0bdd00	0.008536577
30	0x3d11b16f	0.035569604
31	0x3cc296de	0.02375358
32	0x3b8de05a	0.0043297233
33	0xbc19dc1a	-0.009390855
34	0xbd55bbe9	-0.05218116
35	0xbb8b1eb0	-0.0042456016
36	0xbb6351f3	-0.0034686297
37	0x3cd537e3	0.026027625
38	0xbcbc5217	-0.022988362
39	0x3cea2996	0.028584283
40	0x3dc5ba54	0.0965468
41	0xbd283d10	-0.04107386
42	0xbd9f421a	-0.0777628
43	0x3b5001a2	0.0031739254
44	0x3ccdba12	0.02511314
45	0x3d6992a4	0.057024613
46	0xbdd9d894	-0.10637012
47	0x3d02ba65	0.03191604
48	0xbd298f6e	-0.04139655
49	0xbc9ab011	-0.018882783
50	0x3d98d063	0.074616216
51	0xbdc39462	-0.09549786
52	0xbd2270e2	-0.039658435
53	0xbd43a744	-0.04776694
54	0xbd099bfd	-0.033596028
55	0xbbcc0905	-0.006226661
56	0xbd2a98c1	-0.041649584
57	0x3cc0b952	0.023525868
58	0xbd66aa8d	-0.056314994
59	0xbc91a287	-0.017777694
60	0xbc86f392	-0.016473565
61	0x3c4deb0f	0.012568249
62	0x3bbab87e	0.0056982627
63	0xbc6eccc7	-0.01457519
64	0xbcb6c623	-0.022311276
65	0xbd55a21a	-0.052156545
66	0xbc12b49c	-0.008954193
67	0x39330438	0.00017072342
68	0xbcd2149d	-0.025644595
69	0xbc71f0af	-0.014766856
70	0x3d11e69a	0.03562031
71	0x39e01baf	0.00042745235
72	0x3caf81d4	0.021424212
73	0xbdb22a0c	-0.08699426
74	0xbd41f5bd	-0.047353495
75	0x3d891d56	0.066950485
76	0x3de2c7ae	0.11073242
77	0x3bb2bd1e	0.0054546734
78	0xbda32af9	-0.07967181
79	0x3c904196	0.017609399
80	0x3d1df177	0.038560357
81	0x3bcf9428	0.0063348003
82	0xbd158e86	-0.036512874
83	0xbbe4b4b4	-0.0069795493
84	0x3d6a66f6	0.057227097
85	0xbc9e8011	-0.019348176
86	0x3d16b869	0.03679696
87	0xbb233dee	-0.002490874
88	0xbcba9bf4	-0.022779442
89	0xbd498e4b	-0.049207967
90	0x3d3ae81d	0.045631517
91	0xbc31f323	-0.010861191
92	0x3ccd7b2a	0.025083143
93	0xb9e1dbef	-0.00043079208
94	0xba303008	-0.00067210244
95	0x3d07ae35	0.03312512

model.model.embedding_out.bias f4 [3]
0	0x3cac105c	0.021003895
1	0xbddb3062	-0.10702588
2	0xbcf51efc	-0.029922001

model.model.gcl_0.edge_mlp.0.weight f4 [32, 66]
0	0x3e4ccfe8	0.20001185
1	0xbc26d783	-0.010183218
2	0x3dd83a5c	0.10558006
3	0x3c4ccdc0	0.0125002265
4	0xbafc195f	-0.0019233635
5	0xbdceb498	-0.10093039
6	0x3d36d8fb	0.044640522
7	0x3eaa7187	0.3328974
8	0xbcf8e454	-0.030382313
9	0xbd080420	-0.03320706
10	0xbcc1275d	-0.02357834
11	0xbd170f13	-0.03687961
12	0x3e2c3dda	0.1682047
13	0x3d03d615	0.032186586
14	0xbceae26c	-0.02867242
15	0x3d152362	0.036410697
16	0x3d62ea40	0.05539918
17	0x3d5de684	0.054174915
18	0xbd7979d5	-0.060907204
19	0x3ca396c9	0.01996936
20	0xbcd36ab6	-0.02580772
21	0x3da9950b	0.08280381
22	0xbd9e98fe	-0.07744025
23	0xbe3c252e	-0.18373558
24	0x3d6474b7	0.05577537
25	0x3c8336e7	0.01601739
26	0xbe05a99a	-0.13052979
27	0x3b0bf1ce	0.0021353844
28	0xbeac631c	-0.33669364
29	0x3c8331b7	0.016014917
30	0x3e34c8e5	0.1765476
31	0x3cd97e01	0.026549341
32	0x3d004247	0.031313207
33	0xbe106af4	-0.141033
34	0x3db12142	0.086489215
35	0xbe0315ed	-0.12801333
36	0xbd8209b1	-0.06349505
37	0x3db731a5	0.08945016
38	0xbc6aba6a	-0.014326671
39	0xbe18c317	-0.14918171
40	0xbdf1aa9a	-0.11800118
41	0xbd4bdd77	-0.049771752
42	0x3e5ca43c	0.21547025
43	0x3dbf8013	0.093506
44	0xbbd51996	-0.006503294
45	0xbd898309	-0.06714446
46	0x3e4392c4	0.19098955
47	0xbe0a8072	-0.1352556
48	0xbe87a3da	-0.26492196
49	0xbddd3194	-0.10800472
50	0x3e13b7fd	0.14425655
51	0x3d2547ab	0.04035155
52	0x3cdb4a9d	0.026768977
53	0xbd9be69f	-0.07612347
54	0xbdca3da9	-0.09875042
55	0x3d86d49d	0.065835215
56	0xbe13531d	-0.14387174
57	0x3d51f4c8	0.051258832
58	0xbde62c20	-0.11238885
59	0xbdcfe09d	-0.101502635
60	0x3dbd632d	0.09247432
61	0x3e850467	0.2597992
62	0x3dfc432c	0.123174995
63	0x3bad8901	0.005295873
64	0xbe7722cd	-0.24134369
65	0x3cad5c3d	0.021162147
66	0x3dbe3601	0.09287644
67	0xbc314c86	-0.010821467
68	0xbbd6af0b	-0.0065516285
69	0x3c0f6f74	0.0087546
70	0xbc970205	-0.01843358
71	0xbde7d235	-0.11319391
72	0x3e19e5ed	0.15029116
73	0x3eb7481c	0.35797203
74	0x3ae4f694	0.0017468506
75	0xbdba29ae	-0.09089981
76	0x3d6671d2	0.05626089
77	0x3ce8e474	0.028429247
78	0x3df63248	0.12021309
79	0xbd9c3777	-0.076277666
80	0xbdcb2a81	-0.09920216
81	0x3d6cfe7d	0.057859886
82	0x3e39cbe5	0.18144186
83	0x3e6bd2dc	0.23029655
84	0xbc9e6c4c	-0.01933875
85	0xbe4c5127	-0.19952832
86	0xbd11a51f	-0.035557862
87	0x3d9317b2	0.07182254
88	0x3be67df0	0.007034056
89	0xbe055971	-0.130224
90	0xbd9c3c75	-0.07628719
91	0xbd9f654c	-0.07782993
92	0xbd6f36ab	-0.058401745
93	0xbe1aef63	-0.15130381
94	0xbe72d866	-0.23715362
95	0xbe0183ba	-0.12647906
96	0x3e19740d	0.14985676
97	0x3d56a357	0.052401867
98	0x3d7b7262	0.06138838
99	0xbb34726b	-0.0027534019
100	0xbd95c387	-0.073126845
101	0xbdd6b9c3	-0.1048465
102	0x3c8f656c	0.017504416
103	0xbd8d403b	-0.068970166
104	0xbd480530	-0.048833072
105	0xbe29bed2	-0.16576698
106	0x3db5a6f4	0.088697344
107	0xbc9d5593	-0.019205844
108	0xbc781c2b	-0.0151434345
109	0xbdde0ab9	-0.10841889
110	0x3da0404f	0.07824766
111	0x3c2ebd0d	0.01066519
112	0x3dea99e8	0.114551365
113	0xbe0323a1	-0.1280656
114	0xbdeadf59	-0.114683814
115	0xbdfff81e	-0.124984965
116	0x3e8d5ad1	0.2760835
117	0x3d90647f	0.07050418
118	0xbdc6762c	-0.09690508
119	0xba58a091	-0.00082636724
120	0xbd20f1ad	-0.03929298
121	0xbcaf4c3c	-0.021398656
122	0xbd33c29c	-0.043886766
123	0xbcb5aec1	-0.022178056
124	0xbd3599a3	-0.044335973
125	0xbd6c377f	-0.057670113
126	0x3d986caf	0.07442605
127	0x3d1b1915	0.037865717
128	0x3c27e1fc	0.01024675
129	0xbc91c0d2	-0.01779214
130	0xbd005f0e	-0.03134065
131	0xbd87a91b	-0.06624051
132	0x3e819601	0.25309756
133	0x3d7c502b	0.06159989
134	0x3bfacc4b	0.007653748
135	0xbdd30b5d	-0.10304902
136	0xbd8ecc39	-0.06972546
137	0xbe794633	-0.24343185
138	0x3d989ffe	0.07452391
139	0x3e7146bf	0.23562144
140	0x3ddd3155	0.10800425
141	0xbe48f99d	-0.1962647
142	0xbda2145f	-0.07914042
143	0xbc1f12d5	-0.00970908
144	0x3df854f1	0.12125576
145	0x3dfb6901	0.12275887
146	0xba3e6546	-0.0007263016
147	0x3dc94387	0.09827333
148	0x3e90ff1e	0.2831964
149	0x3e1e37a5	0.15450914
150	0xbd8d4a26	-0.06898908
151	0xbd6208d2	-0.055184193
152	0xbd62f164	-0.05540599
153	0xbdcf7485	-0.10129646
154	0x3d8b5b2a	0.068044975
155	0xbe58e7e7	-0.21182214
156	0xbde9c80a	-0.114151075
157	0xbcef0c27	-0.0291806
158	0xbddd431b	-0.10803815
159	0xbd1a6ff8	-0.037704438
160	0xbe90f6a1	-0.28313163
161	0xbe2ddb66	-0.16978225
162	0x3e212bd1	0.15739371
163	0x3e817e57	0.25291702
164	0x3dc1d069	0.09463579
165	0xbc97458b	-0.018465778
166	0x3db0952f	0.086222045
167	0xbe54d542	-0.20784476
168	0x3e114be2	0.14189103
169	0x3bac92f2	0.0052665407
170	0xbe557009	-0.2084352
171	0x3cc9df42	0.02464259
172	0x3cd000cd	0.025391007
173	0x3d4bc8c3	0.04975201
174	0x3e5314a5	0.20613344
175	0xbcc8256b	-0.024431905
176	0xbe25d93f	-0.16196154
177	0xbdf8ee53	-0.12154832
178	0x3e355098	0.17706525
179	0xbc9cbc3c	-0.019132726
180	0xbe337f48	-0.17529023
181	0xbde173d7	-0.11008423
182	0x3dd9c688	0.1063357
183	0xbd527ea3	-0.0513903
184	0xbd2f6ad3	-0.042826485
185	0xbdf24039	-0.11828656
186	0xbd273085	-0.040817756
187	0x3c8efa74	0.01745341
188	0xbb0bd250	-0.0021335073
189	0x3dc7153a	0.097208455
190	0xbdd1a9d7	-0.102374725
191	0x3d37a932	0.04483909
192	0xbc5fa6ff	-0.013650655
193	0x3e5d725e	0.21625659
194	0xbcfc6ff0	-0.030815095
195	0xbdce216b	-0.10064968
196	0xbe4f5012	-0.20245388
197	0xbe7be196	-0.24597773
198	0x3d1e9d78	0.038724393
199	0x3c9954f5	0.018717268
200	0xbe002084	-0.12512404
201	0x3e0cb438	0.13740623
202	0x3d1c3b1f	0.03814232
203	0x3e557d83	0.2084866
204	0x3db9f422	0.09079768
205	0x3ddf5faf	0.10906922
206	0xbd9036d7	-0.0704171
207	0xbd126939	-0.03574488
208	0x3cfb5b32	0.030683134
209	0x3da19a2d	0.07890735
210	0x3dcd2a3b	0.100178204
211	0x3d92ab01	0.07161523
212	0xbd2c9e1c	-0.042142972
213	0xbd8090e5	-0.062776364
214	0xbe0470e0	-0.12933683
215	0x3d0f3fb5	0.034972865
216	0x3e2ff8ec	0.171848
217	0x3a885c1e	0.001040343
218	0xbd85ec13	-0.06539168
219	0x3d390ae0	0.045176387
220	0x3d3ab881	0.045586113
221	0x3dc45d07	0.09588056
222	0xbc85eff2	-0.016349766
223	0x3d75beae	0.0599963
224	0x3d8580c3	0.065187
225	0xbd9413e5	-0.07230357
226	0xbcde91ec	-0.02716919
227	0xbcec1ae4	-0.028821416
228	0xbda12b04	-0.07869533
229	0xbde60988	-0.11232287
230	0x3d8ec320	0.06970811
231	0xbd400d36	-0.0468876
232	0xbdb152a9	-0.08658344
233	0x3e10fc2b	0.14158694
234	0xbc8b2eeb	-0.016990146
235	0x3dc22ce4	0.094812185
236	0xbdc698c6	-0.09697108
237	0xbd9f0ff2	-0.07766713
238	0xbdc383fc	-0.095466584
239	0x3b8c024d	0.004272735
240	0x3c0c0dcb	0.00854821
241	0x3c0f66b8	0.008752517
242	0xbdd4e734	-0.10395661
243	0xbd71e1d6	-0.059053265
244	0xbddaa964	-0.1067684
245	0x3e044c6a	0.12919775
246	0xbd6d0ab3	-0.05787153
247	0x3d772b41	0.060343985
248	0xbd182a64	-0.0371498
249	0xbd21fe41	-0.039549116
250	0xbd76a9de	-0.06022059
251	0x3dde65ae	0.108592376
252	0xbc58479a	-0.013200665
253	0xbdbd931d	-0.09256575
254	0xbd98b8c5	-0.07457117
255	0xba734b60	-0.0009280946

model.model.gcl_0.edge_mlp.0.bias f4 [32]
0	0x3db62b20	0.08894944
1	0xbdf6af61	-0.120451696
2	0xbd32d571	-0.043660585
3	0xbd175cfb	-0.036953907
4	0x3d344806	0.044014
5	0x3c723d53	0.014785129
6	0xbd623c0c	-0.055233046
7	0xbc3d4183	-0.011551264
8	0xbd27d016	-0.04096993
9	0x3e07829b	0.13233416
10	0x3daa91c2	0.08328582
11	0x3c5df001	0.013545991
12	0x3e06e848	0.13174546
13	0xbd8aa843	-0.067703746
14	0xbd651adb	-0.055933814
15	0x3ca3d198	0.019997403
16	0xbba58ca7	-0.0050521675
17	0xbd6a6bf7	-0.05723187
18	0xbd9a192d	-0.07524333
19	0xbdd7e5c6	-0.10541873
20	0x3d382f43	0.044966947
21	0x3d4211cc	0.047380254
22	0x3d4cd2ba	0.050005652
23	0xbd71844c	-0.05896406
24	0x3dd36abd	0.10323093
25	0xbc2a7960	-0.010404915
26	0x3d87627e	0.06610583
27	0xbc707443	-0.014676156
28	0xbd5049a6	-0.050851487
29	0xbdc852c0	-0.09781408
30	0x3d25a812	0.040443487
31	0xbd6aa968	-0.057290465

model.model.gcl_0.edge_mlp.2.weight f4 [32, 32]
0	0x3dad8e09	0.08474357
1	0x3d2f1ad1	0.042750183
2	0xbe868729	-0.26274994
3	0x3e229fa6	0.15881214
4	0x3e3dee9e	0.18548056
5	0x3d9f9cd4	0.077935845
6	0xbe1e84bd	-0.15480323
7	0xbc577b75	-0.013151993
8	0xbd8a1405	-0.067421
9	0x3dcbc376	0.099493906
10	0x3e4ddc38	0.20103538
11	0x3e28da92	0.16489628
12	0x3e0929ee	0.13394901
13	0x3d79e65c	0.061010703
14	0xbd84cdc3	-0.064845584
15	0x3d611112	0.05494792
16	0x3d9d5d86	0.07683854
17	0x3e0f6e80	0.14006996
18	0xbd2e4749	-0.04254845
19	0xbda78807	-0.08180242
20	0x3e0c38d5	0.13693555
21	0xbe898610	-0.26860094
22	0x3d8e463e	0.069469914
23	0xbe0d8971	-0.13821961
24	0x3b6619d7	0.0035110617
25	0xbd8b976b	-0.0681599
26	0x3b3f8644	0.0029224316
27	0xbe685f11	-0.22692515
28	0xbe1e1d65	-0.154409
29	0x3d69286d	0.05692332
30	0xbd3f3d41	-0.046689276
31	0x3cc2b1a3	0.023766344
32	0xbcd76f72	-0.026298258
33	0x3de22528	0.11042243
34	0x3e2fa095	0.17151101
35	0x3e4ae2c7	0.19813071
36	0x3e32691d	0.1742291
37	0x3e228069	0.15869297
38	0x3da06286	0.07831292
39	0xbe126aa8	-0.14298499
40	0xbe051342	-0.12995628
41	0xbd2a69b3	-0.04160471
42	0x3d9bd42d	0.07608829
43	0x3deff0e5	0.11715869
44	0x3dc41b74	0.09575549
45	0x3e0ed43d	0.1394815
46	0xbdb8ac54	-0.09017244
47	0xbd44de14	-0.048063353
48	0xbda49eda	-0.08038111
49	0xbe1dd4e1	-0.15413238
50	0xbdcf92d3	-0.10135426
51	0x3ca243ed	0.01980778
52	0xbd9bb0e8	-0.076021016
53	0xbd99aece	-0.075040445
54	0xbd256f98	-0.040389627
55	0xbde2c726	-0.11073141
56	0xbc0ebb1a	-0.008711601
57	0x3cf267ca	0.029590506
58	0xbe13c9d6	-0.14432463
59	0x3d4ae480	0.04953432
60	0x3db7aca5	0.08968476
61	0x3dceeaaf	0.10103356
62	0xbd37ad5a	-0.044843055
63	0xbdc9c448	-0.09851891
64	0xbccdca98	-0.025121018
65	0xbcc86075	-0.024460057
66	0xbe0e5537	-0.13899694
67	0xbd80067e	-0.06251238
68	0x3d48522f	0.0489065
69	0x3de14d84	0.11001113
70	0x3d4e171b	0.050315004
71	0xbe002fe3	-0.12518267
72	0xbda105fe	-0.07862471
73	0x3957fe60	0.0002059876
74	0x3daa8b23	0.083273195
75	0x3db20a4f	0.086933725
76	0xbd879daa	-0.06621869
77	0x3d5bdc69	0.053676996
78	0xbde40e8a	-0.111355856
79	0x3c47abd7	0.012186966
80	0x3db42b11	0.08797277
81	0x3da9e971	0.082964785
82	0xbcfcc625	-0.030856201
83	0xbc941f3a	-0.018081296
84	0x3d7ae4f3	0.0612535
85	0x3d9f2136	0.07770006
86	0xbe52dbaf	-0.20591615
87	0x3dbfbd4a	0.09362276
88	0x3d1d6235	0.038423736
89	0xbd223a62	-0.03960646
90	0x3e1470da	0.14496174
91	0x3dc8954b	0.097941004
92	0x3bdcba87	0.006736103
93	0x3d85f18a	0.065402105
94	0xbd9537ac	-0.07286009
95	0xbe158642	-0.14601997
96	0x3d82148c	0.06351575
97	0xbe386aa0	-0.18009424
98	0x3d426cbd	0.047466982
99	0x3e1fb801	0.15597536
100	0xbde9c94b	-0.11415347
101	0x3db8a7bb	0.09016367
102	0x3de045b1	0.109507926
103	0xbe299a21	-0.16562702
104	0xbdf19e31	-0.11797751
105	0x3e0fc222	0.140389
106	0xbde5f864	-0.112290174
107	0xbe72f3f2	-0.2372587
108	0xbcd0aae7	-0.025472118
109	0x3d336faf	0.04380768
110	0x3d1a76bc	0.03771089
111	0x3d850587	0.06495195
112	0x3c024861	0.007951827
113	0x3d95bc3d	0.07311294
114	0xbcc07b5a	-0.023496319
115	0xbbecbf83	-0.0072249784
116	0xbab0f8eb	-0.0013501918
117	0xbe333e7c	-0.17504305
118	0xbd8b8412	-0.068123
119	0x3dcf86c9	0.1013313
120	0xbdd4ad1a	-0.10384579
121	0x3cd3f632	0.025874231
122	0x3cd6783e	0.026180383
123	0xbd2d24d0	-0.042271435
124	0x3df82550	0.12116492
125	0xbda2c428	-0.0794757
126	0xbdfe59db	-0.12419482
127	0xbda2600a	-0.07928474
128	0x3e634ffa	0.22198477
129	0xbd5756ab	-0.052572887
130	0xbd4e5858	-0.05037722
131	0x3d7f2010	0.062286437
132	0xbdac475a	-0.08412047
133	0xbcac6df2	-0.02104852
134	0x3c81307a	0.015770186
135	0x3d116cb3	0.035504054
136	0xbdfad421	-0.12247492
137	0xbe60037c	-0.21876329
138	0xbdfd36a4	-0.123639375
139	0xbbbf9a1e	-0.0058472296
140	0xbc0a7566	-0.0084508415
141	0xbc791ad6	-0.015204152
142	0x3d235737	0.039878096
143	0x3da885b9	0.082286306
144	0xbdfc662d	-0.12324176
145	0x3dad8324	0.08472279
146	0xbdfba120	-0.122865915
147	0x3ded09bd	0.11574123
148	0xbcf6ed8e	-0.030142572
149	0x3c9d66a1	0.019213976
150	0x3dcdc1c6	0.10046725
151	0xbdb485f1	-0.0881461
152	0x3e07e425	0.13270624
153	0xbd7a4306	-0.061099075
154	0xbdca0711	-0.09864629
155	0x3e8dd56f	0.277019
156	0xbd583d17	-0.052792635
157	0x3e3afa90	0.18259645
158	0x3d4be553	0.049779247
159	0xbd06669c	-0.0328127
160	0x3d5d3db2	0.054013915
161	0x3cf09108	0.029366031
162	0x3e122525	0.14271982
163	0xbe1b5fa8	-0.15173209
164	0xbe334b70	-0.17509246
165	0x3bd595a6	0.0065180836
166	0xbd203941	-0.0391171
167	0xbde9740a	-0.11399086
168	0x3d85b819	0.065292545
169	0xbdb04945	-0.08607725
170	0xbe4b4603	-0.19850926
171	0x3d2cdeb2	0.042204566
172	0xbcb0fdcf	-0.0216054
173	0xbe12c922	-0.14334539
174	0xbe1a848b	-0.15089624
175	0xbd5ad13c	-0.053422198
176	0xbd00eb31	-0.031474296
177	0x3bd34fe3	0.006448732
178	0x3debf639	0.115215726
179	0x3cc5a7a3	0.024127787
180	0x3d002258	0.031282753
181	0xbd83b26d	-0.064305164
182	0x3d76e454	0.060276344
183	0x3d9f4eb0	0.0777868
184	0x3cee3fcb	0.029083153
185	0xbd812978	-0.06306738
186	0x3e377d60	0.1791892
187	0x3e27651a	0.16347161
188	0x3d695043	0.05696131
189	0x3dadc4af	0.0848478
190	0xbce2810c	-0.027649425
191	0x3db1c455	0.086800255
192	0x3cfd7c48	0.030943051
193	0xbde4d666	-0.11173706
194	0x3dcbd25d	0.09952233
195	0xbe6afd93	-0.22948293
196	0x3c5df8f6	0.013548126
197	0xbcac3f28	-0.021026209
198	0xbc84ce5d	-0.016211683
199	0x3e07c122	0.13257268
200	0xbe03033c	-0.12794203
201	0x3e006358	0.12537897
202	0x3e05ed09	0.13078703
203	0xbcbcf09e	-0.023063954
204	0xbd93db52	-0.072195664
205	0xbd5aaad3	-0.053385567
206	0x3df3e4e6	0.11908893
207	0xbd8a6b18	-0.06758708
208	0xbe12968a	-0.14315239
209	0x3d8d141b	0.068886004
210	0x3d6181c2	0.055055387
211	0xbe1e987a	-0.15487853
212	0xbbd00187	-0.0063478383
213	0x3c37a9e1	0.011209936
214	0x3dd8c073	0.10583582
215	0xbc8d74cf	-0.017267613
216	0x3d59b15f	0.05314767
217	0x3cff2456	0.031145256
218	0x3e02e6ea	0.12783399
219	0x3e1c68d8	0.1527437
220	0xbdc41411	-0.0957414
221	0x3e37fb34	0.1796692
222	0x3d68c615	0.05682953
223	0xbe30ad7b	-0.17253678
224	0xbd60701b	-0.054794412
225	0xbd4aced0	-0.049513638
226	0x3e25c022	0.16186574
227	0x3d1ec187	0.03875878
228	0xbd19790d	-0.03746896
229	0x3e1f446e	0.15553448
230	0xbd06400c	-0.032775924
231	0xbad66bed	-0.0016359069
232	0x3df7c336	0.120977804
233	0x3e219889	0.15780844
234	0x3d88e673	0.0668458
235	0x3e020fb5	0.12701304
236	0x3e10ed4a	0.14153019
237	0x3e06c058	0.13159311
238	0xbd72ebab	-0.05930678
239	0xba80ff68	-0.0009841742
240	0xbe3be1c7	-0.18347846
241	0xbe190f09	-0.14947142
242	0xbe107040	-0.1410532
243	0x3deb711f	0.114961855
244	0x3db0e1f6	0.08636849
245	0xbdc81db3	-0.0977129
246	0x3d8107a9	0.06300289
247	0xbda1ff84	-0.07910064
248	0x3dbda1b1	0.09259356
249	0xbd4e6a97	-0.05039462
250	0xbde85a02	-0.11345293
251	0x3e4cffe7	0.20019494
252	0x3dde8660	0.10865474
253	0x3e42e255	0.19031651
254	0xbe2f9bc1	-0.17149259
255	0x3bcbb0ca	0.0062161433

model.model.gcl_0.edge_mlp.2.bias f4 [32]
0	0xbe04ad37	-0.12956701
1	0xbdeb8437	-0.11499827
2	0xbd993693	-0.07481112
3	0xbd9ab7ea	-0.0755461
4	0xbc82646a	-0.015917022
5	0xbdba00c2	-0.09082176
6	0x3db13d65	0.08654288
7	0xbafc2d62	-0.0019239599
8	0xbe359cd4	-0.17735606
9	0x3daf1554	0.0854899
10	0x3de3b3a2	0.111182466
11	0x3caf7fdc	0.021423273
12	0xbe245a4f	-0.16050075
13	0x3de68337	0.11255496
14	0xbd501941	-0.050805334
15	0x3da90c77	0.082543306
16	0x3d176903	0.03696538
17	0xbd36b940	-0.044610262
18	0x3e514c52	0.2043927
19	0x3d20a9de	0.039224498
20	0xbd07e6de	-0.033179156
21	0x3e13f22f	0.14447854
22	0x3e186727	0.148831
23	0xbdbd74a8	-0.09250766
24	0x3d0f75d9	0.035024498
25	0xbd058b89	-0.032603774
26	0xbc9c74c4	-0.019098647
27	0xbdeefbfe	-0.116691574
28	0xbe161ddc	-0.14659828
29	0x3d4dbf38	0.05023119
30	0xbdd82863	-0.10554578
31	0xbdc1e933	-0.09468307

model.model.gcl_0.node_mlp.0.weight f4 [32, 64]
0	0xbe00a220	-0.12561846
1	0x3e0ec5c5	0.1394263
2	0xbc2b69fa	-0.0104622785
3	0xbdba27c1	-0.09089614
4	0x3d850d7d	0.06496713
5	0x3bea5bcb	0.007152056
6	0x3d1593dd	0.036517967
7	0x3dce3477	0.100686006
8	0x3e480ef6	0.19536957
9	0xbd204fbf	-0.03913855
10	0xbde57a0c	-0.11204919
11	0x3d21f77c	0.03954266
12	0x3e4d8db5	0.20073588
13	0x3dca425a	0.09875937
14	0xbd4a4d4d	-0.049390126
15	0xbcb70edc	-0.022345953
16	0xbda54ed1	-0.08071674
17	0xbde9c166	-0.11413841
18	0x3da1d79d	0.07902453
19	0xbe424b49	-0.18974032
20	0xbd329855	-0.043602306
21	0xbd74dc0d	-0.05978017
22	0xbd7a48a2	-0.061104424
23	0xbd1b8907	-0.037972476
24	0x3d922a8d	0.07137022
25	0x3df2919a	0.118441775
26	0x3cf0c7ca	0.029392142
27	0xbb7b74d9	-0.0038369207
28	0xbdb3b2a1	-0.08774305
29	0x3e0573ac	0.13032407
30	0x3a1c0e24	0.0005953035
31	0xbd337121	-0.04380906
32	0x3d703477	0.058643784
33	0xbd8e41ec	-0.06946167
34	0xbd2b7740	-0.041861773
35	0xbcfde337	-0.030992134
36	0xbe036ec6	-0.12835225
37	0x3da61512	0.081094876
38	0xbd8b0bae	-0.06789337
39	0x3d4cf6b3	0.05003996
40	0xbcdb4a53	-0.026768839
41	0x3d6c42b7	0.05768081
42	0xbdce99d0	-0.10087931
43	0x3da63daf	0.08117234
44	0xbd0bcca7	-0.03413072
45	0xbe0346ed	-0.12820025
46	0x3cb81b96	0.022474092
47	0xbd903601	-0.070415504
48	0xbd966b49	-0.07344682
49	0x3c26de96	0.010184905
50	0xbc907de2	-0.01763815
51	0xbe044fb8	-0.12921035
52	0x3c858979	0.016300904
53	0xba5460c3	-0.0008101577
54	0x3d02506c	0.031814978
55	0xbd988763	-0.07447698
56	0x3d123aac	0.035700485
57	0x3d1b912e	0.03798025
58	0x3dcb9324	0.09940174
59	0x3e09c08f	0.13452362
60	0xbdaca453	-0.0842978
61	0xbdb5e51d	-0.088815905
62	0xbc9b4eec	-0.018958531
63	0x3dcf034d	0.101080514
64	0xbdc34820	-0.09535241
65	0xbd398cdd	-0.045300353
66	0xbe17aad2	-0.14811257
67	0xbdde00bc	-0.10839984
68	0xbd98c11f	-0.0745871
69	0xbdceff1d	-0.10107253
70	0xbdc75aa2	-0.09734084
71	0x3db818d7	0.08989113
72	0xbc0763d8	-0.008263551
73	0xbd6a2d47	-0.057172086
74	0x3c3abaf1	0.011397109
75	0xbdb65591	-0.08903039
76	0x3cf21771	0.029552193
77	0x3db9a59c	0.090647906
78	0xbda7bf39	-0.0819077
79	0x3da63860	0.081162214
80	0x3d796f7a	0.060897328
81	0xbce4543a	-0.027872194
82	0xbd872e69	-0.06600649
83	0xbe155d33	-0.14586334
84	0x3d0259a9	0.031823788
85	0x3d933749	0.07188279
86	0x3cafd479	0.02146362
87	0xbd95a36d	-0.073065616
88	0xbdb03e9d	-0.086056925
89	0xbca64c62	-0.020300094
90	0x3db17256	0.08664386
91	0xbd91e945	-0.07124571
92	0xba792747	-0.0009504449
93	0xbd6ed414	-0.058307722
94	0x3e09c16b	0.1345269
95	0x3d72e9eb	0.059305113
96	0x3d817573	0.0632123
97	0x3d411067	0.047134783
98	0x3d355fba	0.044280745
99	0x3dded040	0.10879564
100	0xbdb36334	-0.08759156
101	0x3d88ac12	0.06673445
102	0xb97a82a1	-0.00023890521
103	0x3d83b10c	0.064302534
104	0xbdb005bf	-0.08594846
105	0xbd5ca378	-0.053866833
106	0x3d6d756c	0.05797331
107	0xbc84b806	-0.01620103
108	0xbbffaa35	-0.0078022727
109	0x3dda7705	0.106672324
110	0xbde48faf	-0.11160218
111	0x3de89afb	0.11357685
112	0xbc82509a	-0.015907574
113	0x3da256d3	0.07926717
114	0x3d0cb4fc	0.034352288
115	0x3d0b52a5	0.034014363
116	0xbd9e2587	-0.077220015
117	0x3cbf804f	0.023376612
118	0x3d51610c	0.05111794
119	0xbcad0a81	-0.021123173
120	0x3dd72842	0.105057254
121	0xbcefcd93	-0.02927283
122	0x3d109801	0.035301212
123	0x3d8dcf66	0.06924324
124	0xbde4f260	-0.11179042
125	0x3d5bfb2b	0.05370633
126	0x3b88b9d5	0.0041725435
127	0xbd3c2c06	-0.04594042
128	0xbd3f5146	-0.046708368
129	0x3de511e1	0.11185051
130	0x3cb0a198	0.021561429
131	0xbdf797a2	-0.120894685
132	0xbe479dcb	-0.19493787
133	0xbd36b074	-0.044601873
134	0x3a9ad34f	0.0011812242
135	0x3cd0f7c0	0.025508761
136	0x3e4b97fe	0.19882199
137	0xbd91dbb9	-0.07121987
138	0xbdfdef2a	-0.123991325
139	0xbd5ebaf7	-0.054377522
140	0x3b7b0e26	0.0038307994
141	0x3d65053d	0.0559132
142	0xbc4bba4b	-0.012434552
143	0xbe673f89	-0.2258283
144	0x3dc515fc	0.09623334
145	0xbc8b01e0	-0.016968668
146	0x3c3625e9	0.011117437
147	0xbe60b4d9	-0.21943988
148	0xbd8eeb8d	-0.069785215
149	0xbcbdcb7d	-0.02316832
150	0xbe5d0898	-0.2158531
151	0x3e18ef1a	0.1493496
152	0xbdf18da6	-0.117945954
153	0x3d1431f2	0.036180444
154	0x3dc22be9	0.094810314
155	0x3e223ec2	0.15844253
156	0xbdfdc063	-0.123902105
157	0xbe1b5030	-0.15167308
158	0x3d6783a0	0.05652201
159	0xbce52543	-0.02797187
160	0xbcedce08	-0.029028907
161	0xbc88b1e6	-0.016686391
162	0x3deb4c38	0.11489147
163	0xbc408742	-0.011750998
164	0x3bfff9cb	0.00781176
165	0x3da18fa5	0.07888726
166	0x3cfe1a38	0.031018361
167	0xbbcc6a77	-0.0062382775
168	0xbd69374e	-0.05693751
169	0x3d028224	0.031862393
170	0x3c96e9a2	0.018421952
171	0x3e058375	0.13038428
172	0x3d5cb54b	0.053883832
173	0xbdbf38a8	-0.09336978
174	0xbde84f99	-0.11343307
175	0xbd8b80f9	-0.06811709
176	0xbe24dbb4	-0.16099435
177	0x3b4b1159	0.0030985682
178	0x3dd2e38d	0.10297308
179	0x3de21d4b	0.110407434
180	0x3d189b80	0.03725767
181	0xbd1a64c6	-0.03769376
182	0xbd305c92	-0.043057032
183	0x3d1db022	0.03849805
184	0x3d991ddb	0.074763976
185	0x3c6c50a8	0.014423527
186	0xbd8c9c90	-0.068657994
187	0xbc35ff7f	-0.011108278
188	0xbdc65d31	-0.096857436
189	0xbd040dd5	-0.032239754
190	0x3d7959d1	0.06087667
191	0xbd84e1d3	-0.06488385
192	0xbe2783a7	-0.16358815
193	0x3d32080e	0.043464713
194	0x3e0b247b	0.13588135
195	0xbe261714	-0.16219741
196	0x3dd56265	0.10419158
197	0x3d46f41c	0.048572645
198	0x3da01397	0.078162365
199	0xbe34e812	-0.17666653
200	0x3e6b3a04	0.2297135
201	0x3cafe737	0.021472557
202	0x3e439ca3	0.19102721
203	0xbd943587	-0.07236772
204	0x3e0b1515	0.13582261
205	0xbdcc31ba	-0.09970422
206	0xbd30bcc0	-0.043148756
207	0xbe69dd86	-0.2283841
208	0x3ce2a4ee	0.027666535
209	0xbd9057c9	-0.07047994
210	0x3dc310df	0.09524702
211	0xbc9c920c	-0.01911261
212	0xbd979cf6	-0.07402985
213	0xbe009a7b	-0.1255893
214	0x3df7a397	0.12091749
215	0x3a926344	0.00111685
216	0x3d20e722	0.039282925
217	0x3d5bb5ae	0.05364006
218	0xbd2a3626	-0.041555546
219	0xbd564384	-0.05231048
220	0x3e5bc6c0	0.21462536
221	0x3eb972b8	0.36220336
222	0xbdc4ad2a	-0.09603341
223	0xbe817f99	-0.25292662
224	0x3e22fb6b	0.15916221
225	0x3e5f1411	0.21784998
226	0x3cb5de8f	0.02220085
227	0x3dad61a3	0.08465888
228	0xbce037b1	-0.027370306
229	0xbc67301b	-0.01411059
230	0x3bf42d0e	0.00745166
231	0xbd0df9fc	-0.03466223
232	0x3e2d3617	0.16915165
233	0x3d5ba446	0.05362346
234	0x3db87c73	0.09008112
235	0x3bb5fc83	0.0055537834
236	0x3d3caf1e	0.046065442
237	0x3e2b5a4c	0.16733664
238	0x3e644ac2	0.22294143
239	0xbe1d6e65	-0.15374143
240	0x3da5f4c3	0.08103325
241	0x3c54f3c5	0.012997572
242	0xbe525efe	-0.20544049
243	0x3e0ca346	0.13734159
244	0x3e467c5a	0.19383374
245	0xbd4f7fa8	-0.05065885
246	0xbded64e0	-0.11591506
247	0x3e121562	0.1426597
248	0xbdde96cf	-0.10868608
249	0x3e600478	0.21876705
250	0x3dffb464	0.12485579
251	0xbde0768a	-0.109601095
252	0x3cc7a08a	0.024368543
253	0x3d8ec316	0.069708034
254	0x3dc50784	0.09620574
255	0x3c9e672c	0.019336306

model.model.gcl_0.node_mlp.0.bias f4 [32]
0	0xbd16393a	-0.03667567
1	0xbe3fd67f	-0.18734168
2	0xbe1aabf3	-0.15104656
3	0xbe24f0f2	-0.16107538
4	0xbd051c2f	-0.03249758
5	0xbd50efcc	-0.051009938
6	0xbe37d394	-0.17951804
7	0xbc8eae85	-0.017417202
8	0xbd0c625b	-0.034273487
9	0x3d8142c9	0.063115664
10	0xbe1c7be0	-0.1528163
11	0xbd983574	-0.074320704
12	0xbdfd11c5	-0.12356905
13	0xbe068ff3	-0.1314085
14	0xbd447a24	-0.047968045
15	0xbd25c867	-0.04047432
16	0x3c61a383	0.013771894
17	0xbdec01cf	-0.115237825
18	0xbd88589b	-0.06657525
19	0x3d9afd49	0.075678416
20	0xbe04f2ce	-0.12983248
21	0xbc68c913	-0.014208096
22	0x3d1d9e8a	0.038481273
23	0xbc7e9212	-0.015537756
24	0xbe0146ee	-0.12624714
25	0xbe0d3563	-0.13789897
26	0xbdd56229	-0.10419113
27	0xbbbf8f8f	-0.005845971
28	0xbb186cc0	-0.002325818
29	0xbdfee3e7	-0.12445813
30	0xbc3f7dd3	-0.011687714
31	0xbc2d2a41	-0.010569156

model.model.gcl_0.node_mlp.2.weight f4 [32, 32]
0	0x3c955a07	0.018231405
1	0xbdead024	-0.11465481
2	0xbc555f74	-0.013023246
3	0xbe03a4f6	-0.12855896
4	0x3b038fa6	0.0020074635
5	0x3c212306	0.00983501
6	0xbda04348	-0.07825333
7	0xbd55794f	-0.052117642
8	0xbd888a98	-0.0666706
9	0x3c6f7b19	0.014616751
10	0xbdbb4acd	-0.091451265
11	0x3e2ea291	0.17054202
12	0x3e2698f1	0.1626928
13	0xbdd4b0a5	-0.10385255
14	0x3d42695c	0.04746376
15	0xbab3322c	-0.0013671569
16	0x3de31e0c	0.11089715
17	0xbd3d43bc	-0.046207175
18	0x3d5a1361	0.053241137
19	0x3d439a5b	0.047754627
20	0x3ce0446d	0.027376378
21	0x3c178d01	0.009249927
22	0xbdcdf92c	-0.100572914
23	0x3e13a5d0	0.14418721
24	0x3e26642a	0.16249147
25	0xbd9fe67a	-0.07807632
26	0xbe16e299	-0.14734878
27	0x3d0def58	0.034652084
28	0x3d948fd4	0.072539955
29	0x3be3d5b9	0.006952968
30	0x3d3b9d66	0.045804404
31	0xbd0863b4	-0.03329821
32	0x3daa904d	0.083283044
33	0xbdca6aeb	-0.09883674
34	0x3da54d96	0.08071439
35	0xbe32079e	-0.17385718
36	0xbd9fecc5	-0.07808832
37	0xbd9f440a	-0.07776649
38	0xbdde744a	-0.10862024
39	0xbddd2c0b	-0.10799416
40	0x3e13d860	0.1443801
41	0x3deee394	0.11664501
42	0xbe1ec2ab	-0.15503947
43	0xbdaea60f	-0.08527767
44	0x3e1ba8e4	0.15201145
45	0x3da4cdca	0.08047064
46	0xbd7cd40d	-0.061725665
47	0xbe30bc50	-0.17259336
48	0x3e0344a9	0.1281916
49	0xbddef917	-0.10887354
50	0xbdaa4709	-0.0831433
51	0x3d9645bf	0.07337522
52	0xbdc3caf8	-0.095601976
53	0x3c3750dc	0.011188712
54	0xbcb834e8	-0.022486165
55	0xbd4bd5e3	-0.049764525
56	0x3d88327b	0.066502534
57	0x3d84dc2d	0.06487308
58	0xbe23dbe9	-0.16001858
59	0x3e09991d	0.13437314
60	0xbe3efda0	-0.18651438
61	0x3d025b7f	0.03182554
62	0xbd8d447e	-0.068978295
63	0x3d8b8cd5	0.06813971
64	0xbd73c96d	-0.059518266
65	0xbd7f5405	-0.062335987
66	0x3e11e491	0.14247347
67	0x3ceca38d	0.02888658
68	0xbe0c9657	-0.13729225
69	0xbbaacc78	-0.005212363
70	0xbd675ac6	-0.056483053
71	0xbdd1db0a	-0.102468565
72	0xbded7f37	-0.1159653
73	0x3d9cd61a	0.07658024
74	0x3dec8f25	0.1155074
75	0x3db1cbe4	0.08681467
76	0xbe3f3041	-0.18670751
77	0xbd4ea713	-0.050452303
78	0xbd49c438	-0.049259394
79	0xbdcbc3a4	-0.09949425
80	0x3daaeab9	0.08345551
81	0x3e235a2a	0.15952364
82	0xbd18205a	-0.037140228
83	0xbd080402	-0.033206947
84	0xbd6d62f2	-0.05795569
85	0xbd9f44f0	-0.07776821
86	0xbd91943e	-0.07108353
87	0xbe119af7	-0.1421927
88	0x3e04e15d	0.12976594
89	0x3d0e75c1	0.034780268
90	0x3d8e248a	0.06940563
91	0x3e00c709	0.12575926
92	0x3d0d4ad2	0.034495182
93	0xbd31962f	-0.043356117
94	0xbe0e24e2	-0.13881257
95	0xbd14d6e9	-0.036337767
96	0x3d84a93b	0.06477591
97	0xbcd49a0c	-0.025952362
98	0xbe3d5b4a	-0.18491855
99	0x3d4331a6	0.04765477
100	0xbd322d75	-0.043500382
101	0x3e0a24a9	0.13490547
102	0x3d76392a	0.06011311
103	0x3d9338d8	0.071885765
104	0xbe0c50e1	-0.13702728
105	0xbc95b381	-0.01827407
106	0xbcb716b9	-0.022349702
107	0x3e1221cf	0.1427071
108	0xbdcb6bd3	-0.09932675
109	0xbe031b1c	-0.1280331
110	0x3dae57ff	0.08512878
111	0x3e05f6cc	0.13082427
112	0xbdee9f55	-0.11651484
113	0x3d39a56c	0.045323774
114	0x3e00393c	0.12521833
115	0xbe1900b6	-0.14941677
116	0x3dc297f0	0.09501636
117	0xbdbb4acc	-0.09145126
118	0xbe59c730	-0.2126739
119	0x3ccea79f	0.025226412
120	0x3d440a7c	0.04786156
121	0x3dd53291	0.104100354
122	0xbe3024ad	-0.1720149
123	0x3b0911bf	0.0020915119
124	0xbd10000c	-0.035156295
125	0xbe169b92	-0.14707783
126	0xbd8f5bff	-0.06999969
127	0xbc9ad132	-0.01889858
128	0xb96be42c	-0.00022496347
129	0xbde3ae9e	-0.1111729
130	0x3d958bed	0.07302079
131	0x3dbd0ea6	0.092313096
132	0x3d09a5c7	0.033605363
133	0xbd233344	-0.039843813
134	0xbd6ecdb7	-0.058301654
135	0x3d3daf20	0.04630959
136	0x3d8b3dbd	0.06798885
137	0x3d8b64ec	0.06806359
138	0xbdebb401	-0.115089424
139	0x3e00beef	0.12572835
140	0x3e06ac3e	0.13151643
141	0x3b893f11	0.0041884263
142	0x3e983984	0.2973138
143	0x3d05d48b	0.0326734
144	0xbda39ded	-0.07989106
145	0x3db91cf4	0.090387255
146	0xbd83ddf1	-0.06438816
147	0x3db0354d	0.08603916
148	0x3de348aa	0.11097844
149	0xbd62af05	-0.055342693
150	0xbd429f21	-0.04751504
151	0x3b678ad6	0.0035330555
152	0x3ce8e1f2	0.028428052
153	0x3c8415ff	0.01612377
154	0x3d6404d8	0.05566868
155	0x3e25ead5	0.16202863
156	0xbc8fe9f4	-0.017567612
157	0x3dea4f1c	0.1144087
158	0xbda66182	-0.08124067
159	0x3e09f5a7	0.13472615
160	0xbe41d0d6	-0.18927321
161	0x3ddfd080	0.1092844
162	0xbca46aea	-0.020070512
163	0xbdec7570	-0.11545837
164	0xbd4031c2	-0.046922453
165	0xbdcae57a	-0.099070504
166	0xbd9926f6	-0.07478134
167	0x3d0eed84	0.03489448
168	0x3d871f7e	0.065978035
169	0x3e124e04	0.14287573
170	0x3e2ea1dd	0.17053933
171	0xbc8d552c	-0.017252527
172	0xbd663ae8	-0.05620852
173	0xbd169e1d	-0.036771882
174	0x3db83d61	0.08996082
175	0xbe32c2d8	-0.1745714
176	0x3c860b0f	0.016362695
177	0xbd809a5b	-0.06279441
178	0xbd0cb43a	-0.034351565
179	0x3ddbb9d0	0.107288
180	0xbdf292e8	-0.118444264
181	0xbbcecdff	-0.0063111777
182	0xbe0eda1c	-0.1395039
183	0xbdf7c1a6	-0.120974824
184	0xbe4af68f	-0.19820617
185	0xbd98b5c3	-0.07456543
186	0xbde28d8c	-0.11062154
187	0xbc1a073e	-0.009401141
188	0xbde92e3b	-0.11385771
189	0x3e3f2d2a	0.18669572
190	0xbe32ba3d	-0.17453857
191	0xbd5cf229	-0.05394188
192	0xbe446806	-0.19180307
193	0xbc8a8e46	-0.016913544
194	0x3db9fac3	0.09081032
195	0x3da68bda	0.08132143
196	0x3ce2a565	0.027666757
197	0x3d123fc3	0.03570534
198	0x3dc4a9ab	0.09602674
199	0x3d0d5ce4	0.034512416
200	0x3cb6a9f7	0.022297842
201	0xbdbbb765	-0.09165839
202	0x3e527ca2	0.20555356
203	0xbe227cce	-0.15867922
204	0xbde16f15	-0.11007515
205	0xbdeb588c	-0.11491498
206	0xbdb5484a	-0.08851679
207	0x3cce9199	0.02521591
208	0xbe11290a	-0.14175811
209	0xbe14112d	-0.14459677
210	0x3dfdb64d	0.12388287
211	0xbd92e04a	-0.07171686
212	0x3d5329db	0.05155359
213	0x3d9d68bd	0.07685993
214	0xbda73251	-0.08163894
215	0x3d4b1371	0.049579088
216	0xbdd35deb	-0.10320648
217	0x3dca1289	0.098668166
218	0xbe02b1ce	-0.1276314
219	0xbcc703c8	-0.024293795
220	0x3bd2bfbc	0.006431548
221	0x3de3bb11	0.111196645
222	0x3d0da42d	0.0345804
223	0xbdbb55e0	-0.09147239
224	0x3e5014d2	0.20320442
225	0x3db64f48	0.089018404
226	0xbc2bab24	-0.010477815
227	0xbe381c47	-0.17979537
228	0xbe3cc659	-0.18435039
229	0xbd98b083	-0.07455542
230	0x3cbbe170	0.022934645
231	0x3cb87dbf	0.022520898
232	0xbdaa5e2d	-0.08318744
233	0xbddb9fdb	-0.107238494
234	0x3c5c465b	0.013444508
235	0xbc9ded2f	-0.019278137
236	0x3db3cb28	0.08778983
237	0xbd3a05de	-0.04541575
238	0xbc803e7b	-0.015654793
239	0xbdf5cc08	-0.120018065
240	0x3e0f7437	0.14009176
241	0x3dd57314	0.1042234
242	0xbdd0e64f	-0.10200178
243	0x3dcff2ba	0.10153718
244	0xbe078fad	-0.13238402
245	0xbd648a1b	-0.05579577
246	0xbe3974d0	-0.18110967
247	0x3b492115	0.0030689884
248	0xbd124d34	-0.035718158
249	0x3c6a9191	0.014316932
250	0x3d15c091	0.0365606
251	0xbd8dfff3	-0.06933584
252	0x3d0cdc7f	0.03438997
253	0xbc7a292c	-0.015268605
254	0xbe167744	-0.14693934
255	0x3d17162c	0.03688638

model.model.gcl_0.node_mlp.2.bias f4 [32]
0	0xbe137580	-0.14400291
1	0xbdcdb310	-0.10043919
2	0xbdb1cbb9	-0.08681435
3	0xbddf3795	-0.10899273
4	0xbd836bd5	-0.06417052
5	0xbdae9086	-0.085236594
6	0x3c92f088	0.01793696
7	0x3d4ea0bf	0.05044627
8	0x3db680a5	0.08911256
9	0xbd57eeea	-0.05271808
10	0xbdadfa3a	-0.084949926
11	0xbdef0798	-0.1167137
12	0x3d7c3dc2	0.061582334
13	0x3db4c811	0.08827222
14	0x3d54c3d8	0.051944584
15	0xbe0b97b5	-0.1363209
16	0xbd957613	-0.072979115
17	0x3cd408b0	0.025883049
18	0x3dcb8ef4	0.099393755
19	0xbdbb3d83	-0.09142592
20	0xbde45124	-0.11148289
21	0xbdff1b3b	-0.12456366
22	0xbdb0104f	-0.085968606
23	0xbb901c48	-0.0043979026
24	0x3d756930	0.059914768
25	0x3df19edf	0.117978804
26	0x3d21b2d3	0.03947718
27	0xbbebb0e8	-0.0071927197
28	0xbce598e4	-0.028027005
29	0xbd53c701	-0.051703457
30	0x3cc09c66	0.023512077
31	0x3db4456a	0.08802302

model.model.gcl_0.coord_mlp.0.weight f4 [32, 32]
0	0x3ecc623c	0.39918697
1	0x3ded74ff	0.11594581
2	0xbd4ffb13	-0.050776552
3	0x3e7e72ed	0.24848528
4	0x3eb2acc2	0.3489743
5	0x3d8d5e10	0.069027066
6	0xbe6a243b	-0.22865383
7	0x3e16c2aa	0.14722696
8	0x3eb5b00f	0.35485885
9	0x3e8a362c	0.26994455
10	0x39c44215	0.00037433268
11	0x3e257861	0.16159202
12	0x3db98d70	0.0906018
13	0x3dfa58e5	0.122239865
14	0x3e7dbef0	0.24779868
15	0xbca8cac4	-0.020604499
16	0xbeab2874	-0.334293
17	0x3d85d7b9	0.065352865
18	0xbe63d86e	-0.2225053
19	0x3e19878f	0.14993118
20	0x3dbb58d1	0.091478
21	0xbeaa6c1b	-0.33285603
22	0xbe93b0ab	-0.28845724
23	0x3dd1af0a	0.10238464
24	0x3c44eee6	0.012019848
25	0x3d8bc48b	0.06824597
26	0x3e1f54d1	0.15559699
27	0x3e750798	0.23928678
28	0xbd9af795	-0.07566754
29	0x3ecc43c9	0.39895466
30	0xbea50269	-0.322284
31	0x3cfa6d5f	0.03056973
32	0xbe755782	-0.23959163
33	0xbe9fec88	-0.31235147
34	0x3dffa26d	0.12482152
35	0x3c43091c	0.011904027
36	0xbdaa8519	-0.083261676
37	0xbe57fd08	-0.21092618
38	0xbdfea70d	-0.12434206
39	0xbe0eb107	-0.13934718
40	0x3c7e9f7e	0.015540956
41	0x3ce6df8e	0.028182771
42	0x3e275f1b	0.16344874
43	0xbbe7dcff	-0.0070759053
44	0xbe82f197	-0.25574943
45	0xbe282413	-0.16420011
46	0xba5e80aa	-0.00084878004
47	0x3e0aa353	0.13538866
48	0x3ea772b3	0.32704696
49	0x3e1db8b3	0.15402488
50	0x3e62dbe1	0.2215419
51	0xbcd017d1	-0.025401982
52	0xbe925835	-0.28582922
53	0x3dd5a82e	0.10432468
54	0x3e6a93ee	0.22907993
55	0xbdc58a0d	-0.09645472
56	0xbda1c8e1	-0.07899643
57	0xbe9d9ee3	-0.30785283
58	0x3de7f4e4	0.11326006
59	0xbd75203e	-0.0598452
60	0x3e85b656	0.26115674
61	0x3b60e777	0.0034317651
62	0x3e451a2a	0.19248262
63	0x3d99554d	0.07486973
64	0xbe824c6f	-0.2544894
65	0xbe14bc58	-0.14524972
66	0x3dbbb6dc	0.09165737
67	0xbe392920	-0.18082094
68	0xbe8c3745	-0.27385917
69	0xbdc59a7e	-0.09648608
70	0xbcfc21a8	-0.030777767
71	0x3d4b66fb	0.049658757
72	0x3c1ec34f	0.00969012
73	0x3d287b9b	0.041133504
74	0x3b81d93b	0.0039626635
75	0xbe962e68	-0.2933228
76	0xbea01524	-0.3126613
77	0xbe85bcb3	-0.2612053
78	0xbd92f39f	-0.07175373
79	0xbe20617b	-0.15662186
80	0x3e8f68e0	0.280097
81	0xbd70438e	-0.058658175
82	0x3e1483c5	0.14503391
83	0x3d5b29cb	0.053506654
84	0xbe849d79	-0.25901392
85	0x3e3d2bc6	0.1847373
86	0x3e8e6277	0.27809498
87	0xbe8f3136	-0.27967232
88	0x3d3f278a	0.046668567
89	0xbe15f6cd	-0.14644928
90	0xbde3d720	-0.11125016
91	0x3aaf550e	0.0013376789
92	0x3e3b8821	0.18313648
93	0xbddea028	-0.10870391
94	0x3e879773	0.26482734
95	0x3dbd6b1f	0.09248947
96	0xbe2e8ba5	-0.17045458
97	0xbd9bb737	-0.07603305
98	0x3da49906	0.080369994
99	0xbe19c8c9	-0.15018
100	0xbe5a7663	-0.21334223
101	0xbd302a7e	-0.043009274
102	0x3e1500f7	0.1455115
103	0x3c99a493	0.018755233
104	0xbeac3391	-0.33633092
105	0x3d8f2c5e	0.06990884
106	0xbda0a831	-0.0784458
107	0xbba6c8b6	-0.0050898446
108	0xbe35e51f	-0.17763184
109	0xbe25aeec	-0.16180009
110	0xbdbb63af	-0.091498725
111	0xbde76ddc	-0.11300251
112	0x3e637cf7	0.22215639
113	0xbd350155	-0.044190723
114	0x3e14fc06	0.14549264
115	0xbc643153	-0.013927775
116	0xbe2807b5	-0.1640919
117	0x3e9e4f97	0.30920097
118	0x3e6a9b60	0.22910833
119	0xbde1aa41	-0.110188015
120	0xbd6247f7	-0.055244412
121	0xbe92a022	-0.28637797
122	0xbe12a5db	-0.14321081
123	0xbe3b63c7	-0.18299781
124	0x3e898061	0.26855758
125	0xbd1efed3	-0.038817238
126	0x3ea51697	0.32243797
127	0x3e630e49	0.22173418
128	0x3e82ba7f	0.2553291
129	0x3e87c192	0.2651487
130	0x3cb67288	0.02227141
131	0x3ea6cc43	0.32577714
132	0x3e95b9ed	0.29243413
133	0x3d8e3d67	0.06945305
134	0xbd814303	-0.063116096
135	0x3d12a07b	0.035797577
136	0x3dde1e4c	0.108456224
137	0x3e708c7c	0.2349109
138	0xbe5949bf	-0.21219538
139	0x3e4ff9ae	0.20310089
140	0x3e0aab1e	0.13541839
141	0x3e96b147	0.29432127
142	0x3e9892f9	0.2979963
143	0xbd107bde	-0.03527438
144	0xbcbc68e5	-0.022999236
145	0xbe0729a2	-0.13199475
146	0xbe6439e9	-0.22287716
147	0x3d452f22	0.048140652
148	0x3d612a6f	0.05497211
149	0xbd829d2e	-0.06377636
150	0xbe9e21c9	-0.3088515
151	0x3e663f32	0.22485045
152	0xbdb1b3c7	-0.08676868
153	0x3e268383	0.16261105
154	0x3e865a81	0.26240924
155	0x3e639c8b	0.22227685
156	0xbe0cf34e	-0.13764688
157	0x3e603f0c	0.2189905
158	0xbcf57b60	-0.029966056
159	0x3c853807	0.016262067
160	0x3caae115	0.02085928
161	0xbe63389c	-0.22189564
162	0x3dcbc1c5	0.09949068
163	0xbe783607	-0.2423936
164	0xbc039710	-0.008031622
165	0x3beda2a1	0.007252053
166	0xbbf29d40	-0.0074039996
167	0x3afdc49b	0.0019360961
168	0xbdf12a12	-0.117756024
169	0x3da07537	0.07834857
170	0x3d5368ad	0.0516135
171	0xbe525458	-0.20539987
172	0xbe548021	-0.20752002
173	0xbe69037c	-0.22755235
174	0xbe40786e	-0.1879594
175	0x3da9321b	0.0826151
176	0xbd81f909	-0.06346328
177	0xbe12167e	-0.14266393
178	0x3c963fb0	0.018340915
179	0xbe3a5597	-0.18196712
180	0xbe7c0cc6	-0.24614248
181	0x3dad9ed3	0.08477559
182	0xbb9246ec	-0.004464021
183	0xbd8af4ba	-0.06784959
184	0x3d98ec37	0.074669294
185	0xbe8c8569	-0.27445534
186	0x3d6dfab0	0.058100402
187	0x3e1a7f57	0.15087639
188	0xbe2650c4	-0.16241747
189	0xbe6237b6	-0.22091565
190	0x3ce8d792	0.028423104
191	0x3d941290	0.07230103
192	0x3e24e840	0.16104221
193	0x3e9f5d2c	0.31125772
194	0xbe8d9831	-0.27655175
195	0x3e852b3d	0.2600955
196	0x3e9d1274	0.3067814
197	0x3dbd1131	0.092317946
198	0xbe5d9ae0	-0.21641111
199	0xbe1e5dfe	-0.15465543
200	0x3ebb3565	0.36564174
201	0x3eafd05e	0.3433866
202	0xbe87a496	-0.26492757
203	0x3e59427f	0.21216772
204	0x3e91ab0f	0.2845082
205	0x3e94e51d	0.2908105
206	0x3ea1dfbe	0.31616014
207	0xbe590d2a	-0.21196428
208	0xbebc6a66	-0.36799926
209	0xbd5c6aeb	-0.053812902
210	0xbe5356ba	-0.20638552
211	0x3e1eaefb	0.15496437
212	0x3e8ad3e4	0.27114785
213	0xbe38132d	-0.17976065
214	0xbed83a2f	-0.4223189
215	0x3e7e563c	0.24837583
216	0x3e83dc90	0.25754213
217	0x3d81e8c4	0.06343225
218	0x3d2f1a30	0.042749584
219	0x3e39d2c2	0.18146804
220	0xbe2e985e	-0.17050311
221	0x3e9570df	0.29187676
222	0xbeb9f9e5	-0.36323467
223	0xbda91972	-0.082568064
224	0xbe9d8ec6	-0.3077299
225	0xbdd216e3	-0.102582715
226	0x3c29f687	0.010373718
227	0xbe0c0a32	-0.13675764
228	0xbe38d726	-0.18050823
229	0xbe9cd6d8	-0.30632663
230	0xbdae9e35	-0.08526269
231	0x3dcd218e	0.10016166
232	0xbd364c60	-0.04450643
233	0xbe7f33c1	-0.24922086
234	0x3df0016e	0.11719023
235	0xbe95524e	-0.29164356
236	0xbeb79cdc	-0.35861862
237	0xbe2270dc	-0.15863365
238	0xbea8fef1	-0.33007005
239	0xbe160fc6	-0.14654455
240	0x3e06b3dc	0.13154548
241	0x3de93f1b	0.113889895
242	0x3e8a9915	0.27069917
243	0xbe5c8b24	-0.21537453
244	0xbdef7a98	-0.11693305
245	0x3e2ec065	0.1706558
246	0x3ea3ff56	0.32030743
247	0xbe642ff4	-0.22283918
248	0xbd80197f	-0.06254863
249	0xbe852aac	-0.2600912
250	0xbe247663	-0.16060786
251	0xbdf858a2	-0.1212628
252	0x3e7d13ef	0.24714635
253	0xbeba40c4	-0.36377537
254	0x3d953420	0.07285333
255	0x3d687b79	0.056758378

model.model.gcl_0.coord_mlp.0.bias f4 [32]
0	0xbe829cc1	-0.2551022
1	0x3e9427bb	0.28936562
2	0x3d9dad51	0.07699073
3	0x3e047e8a	0.12938896
4	0xbdab0089	-0.083497114
5	0xbd8e43ba	-0.069465116
6	0xbe59a2d6	-0.21253523
7	0x3e9d4334	0.30715334
8	0xbe0f52da	-0.13996449
9	0x3e254d82	0.16142848
10	0xbe7740f8	-0.24145877
11	0xbeb3ca87	-0.35115454
12	0x3e854843	0.26031694
13	0x3e929147	0.28626463
14	0xbdfe1613	-0.12406554
15	0x3e54ec62	0.20793298
16	0xbe1f0ba2	-0.15531781
17	0xbea2946d	-0.31753865
18	0xbdec0d56	-0.11525981
19	0xbe9ebf6d	-0.3100542
20	0x3d69a148	0.057038575
21	0x3e9af367	0.30263826
22	0xbe94ba8e	-0.2904858
23	0x3e601802	0.21884158
24	0xbe8d5ae4	-0.27608407
25	0xbea59f63	-0.32348165
26	0xbec2f2cf	-0.38075873
27	0xbecfb429	-0.4056714
28	0x3d7752b8	0.06038162
29	0xbec00e8b	-0.37511095
30	0x3d41e48d	0.047337104
31	0xbec0317e	-0.3753776

model.model.gcl_0.coord_mlp.2.weight f4 [1, 32]
0	0x3e196e2c	0.14983433
1	0xbdd4148d	-0.10355482
2	0xbdc1a698	-0.09455603
3	0xbdfa0f0b	-0.122099005
4	0x3ddc92cd	0.107701875
5	0x3bc94fbc	0.0061435383
6	0x3e185a20	0.1487813
7	0xbe3a3812	-0.18185452
8	0x3e0cd61b	0.1375355
9	0xbdd5696f	-0.104205005
10	0x3e331309	0.1748773
11	0x3e24f9af	0.16110872
12	0xbde6574e	-0.11247121
13	0xbdbb385a	-0.091416076
14	0x3c233677	0.009961716
15	0xbd9882af	-0.07446801
16	0x3e0836c3	0.1330214
17	0x3e247137	0.16058813
18	0x3e03a5dc	0.12856239
19	0x3e1e8d7e	0.15483662
20	0xbd81534c	-0.06314716
21	0xbdf71386	-0.12064271
22	0x3e1f220f	0.15540336
23	0xbde163fb	-0.11005398
24	0x3e2144a6	0.15748844
25	0x3e419167	0.18903123
26	0x3e5be323	0.21473365
27	0x3e215fc7	0.15759192
28	0xbd6a68dd	-0.05722891
29	0x3e26961f	0.16268204
30	0xbd8a10dc	-0.06741497
31	0x3e20f680	0.15719032

model.model.gcl_0.att_mlp.0.weight f4 [1, 32]
0	0x3ecc9d79	0.39963892
1	0x3d8df41c	0.06931326
2	0xbde79e18	-0.11309451
3	0x3e5f189c	0.21786731
4	0x3e94e67c	0.29082096
5	0x3d175cab	0.03695361
6	0xbe124aa3	-0.14286284
7	0xbcd41056	-0.025886696
8	0x3ea88ffc	0.3292235
9	0x3c81efa8	0.015861347
10	0xbdb20794	-0.08692852
11	0x3e80c0d0	0.25147104
12	0x3e02f849	0.12790026
13	0x3e808892	0.25104195
14	0x3df1cc9b	0.118066035
15	0xba9204e7	-0.0011140377
16	0xbcda54e4	-0.026651807
17	0xbc6a843e	-0.014313756
18	0x3d4df306	0.050280593
19	0x3def4a15	0.11684052
20	0x3c155bf8	0.009116165
21	0xbd9b5bed	-0.07585893
22	0xbe659524	-0.22420174
23	0xbd021306	-0.031756423
24	0x3dc6508f	0.09683334
25	0x3e746284	0.23865706
26	0x3d9923b0	0.0747751
27	0x3dfe31b1	0.12411822
28	0xbd41d9b5	-0.047326762
29	0x3d24fe8e	0.040281825
30	0xbe672513	-0.22572736
31	0x3d5a76b0	0.053335845
